…
lr                 : 0.1
lr_cosine          : False
optim              : adadelta
batch_size         : 64
model              : resnet22_2
summary            : True
augment            : True
with_mixup         : True
device             : cuda

Preparing dataset:
-------------------------
Files already downloaded and verified
Files already downloaded and verified


Model Summary: 
----------------------------------------------------------------
        Layer (type)               Output Shape         Param #
================================================================
            Conv2d-1           [-1, 64, 32, 32]           1,728
       BatchNorm2d-2           [-1, 64, 32, 32]             128
              ReLU-3           [-1, 64, 32, 32]               0
            Conv2d-4           [-1, 64, 32, 32]          36,864
       BatchNorm2d-5           [-1, 64, 32, 32]             128
              ReLU-6           [-1, 64, 32, 32]               0
            Conv2d-7           [-1, 64, 32, 32]          36,864
       BatchNorm2d-8           [-1, 64, 32, 32]             128
              ReLU-9           [-1, 64, 32, 32]               0
       BasicBlock-10           [-1, 64, 32, 32]               0
           Conv2d-11           [-1, 64, 32, 32]          36,864
      BatchNorm2d-12           [-1, 64, 32, 32]             128
             ReLU-13           [-1, 64, 32, 32]               0
           Conv2d-14           [-1, 64, 32, 32]          36,864
      BatchNorm2d-15           [-1, 64, 32, 32]             128
             ReLU-16           [-1, 64, 32, 32]               0
       BasicBlock-17           [-1, 64, 32, 32]               0
           Conv2d-18           [-1, 64, 32, 32]          36,864
      BatchNorm2d-19           [-1, 64, 32, 32]             128
             ReLU-20           [-1, 64, 32, 32]               0
           Conv2d-21           [-1, 64, 32, 32]          36,864
      BatchNorm2d-22           [-1, 64, 32, 32]             128
             ReLU-23           [-1, 64, 32, 32]               0
       BasicBlock-24           [-1, 64, 32, 32]               0
           Conv2d-25          [-1, 128, 16, 16]          73,728
      BatchNorm2d-26          [-1, 128, 16, 16]             256
             ReLU-27          [-1, 128, 16, 16]               0
           Conv2d-28          [-1, 128, 16, 16]         147,456
      BatchNorm2d-29          [-1, 128, 16, 16]             256
           Conv2d-30          [-1, 128, 16, 16]           8,192
      BatchNorm2d-31          [-1, 128, 16, 16]             256
             ReLU-32          [-1, 128, 16, 16]               0
       BasicBlock-33          [-1, 128, 16, 16]               0
           Conv2d-34          [-1, 128, 16, 16]         147,456
      BatchNorm2d-35          [-1, 128, 16, 16]             256
             ReLU-36          [-1, 128, 16, 16]               0
           Conv2d-37          [-1, 128, 16, 16]         147,456
      BatchNorm2d-38          [-1, 128, 16, 16]             256
             ReLU-39          [-1, 128, 16, 16]               0
       BasicBlock-40          [-1, 128, 16, 16]               0
           Conv2d-41            [-1, 192, 8, 8]         221,184
      BatchNorm2d-42            [-1, 192, 8, 8]             384
             ReLU-43            [-1, 192, 8, 8]               0
           Conv2d-44            [-1, 192, 8, 8]         331,776
      BatchNorm2d-45            [-1, 192, 8, 8]             384
           Conv2d-46            [-1, 192, 8, 8]          24,576
      BatchNorm2d-47            [-1, 192, 8, 8]             384
             ReLU-48            [-1, 192, 8, 8]               0
       BasicBlock-49            [-1, 192, 8, 8]               0
           Conv2d-50            [-1, 192, 8, 8]         331,776
      BatchNorm2d-51            [-1, 192, 8, 8]             384
             ReLU-52            [-1, 192, 8, 8]               0
           Conv2d-53            [-1, 192, 8, 8]         331,776
      BatchNorm2d-54            [-1, 192, 8, 8]             384
             ReLU-55            [-1, 192, 8, 8]               0
       BasicBlock-56            [-1, 192, 8, 8]               0
           Conv2d-57            [-1, 192, 8, 8]         331,776
      BatchNorm2d-58            [-1, 192, 8, 8]             384
             ReLU-59            [-1, 192, 8, 8]               0
           Conv2d-60            [-1, 192, 8, 8]         331,776
      BatchNorm2d-61            [-1, 192, 8, 8]             384
             ReLU-62            [-1, 192, 8, 8]               0
       BasicBlock-63            [-1, 192, 8, 8]               0
           Conv2d-64            [-1, 256, 4, 4]         442,368
      BatchNorm2d-65            [-1, 256, 4, 4]             512
             ReLU-66            [-1, 256, 4, 4]               0
           Conv2d-67            [-1, 256, 4, 4]         589,824
      BatchNorm2d-68            [-1, 256, 4, 4]             512
           Conv2d-69            [-1, 256, 4, 4]          49,152
      BatchNorm2d-70            [-1, 256, 4, 4]             512
             ReLU-71            [-1, 256, 4, 4]               0
       BasicBlock-72            [-1, 256, 4, 4]               0
           Conv2d-73            [-1, 256, 4, 4]         589,824
      BatchNorm2d-74            [-1, 256, 4, 4]             512
             ReLU-75            [-1, 256, 4, 4]               0
           Conv2d-76            [-1, 256, 4, 4]         589,824
      BatchNorm2d-77            [-1, 256, 4, 4]             512
             ReLU-78            [-1, 256, 4, 4]               0
       BasicBlock-79            [-1, 256, 4, 4]               0
           Linear-80                   [-1, 10]           2,570
           ResNet-81                   [-1, 10]               0
================================================================
Total params: 4,922,826
Trainable params: 4,922,826
Non-trainable params: 0
----------------------------------------------------------------
Input size (MB): 0.01
Forward/backward pass size (MB): 18.66
Params size (MB): 18.78
Estimated Total Size (MB): 37.45
----------------------------------------------------------------

Training the model
…
